models/mnist_modelCNN.pth (torch, 57046 bytes, 22 tensors)

cnnlayers.0.weight f4 [8, 1, 3, 3]
0.12067442 -0.06896007 0.22012332 -0.1494247 0.11994797 0.34808993 -0.23772873 0.20661648
0.016548634 0.14500703 0.17930436 0.31692693 -0.23425685 -0.18755299 -0.18050355 -0.13975747
-0.043086316 -0.27095544 -0.12158028 -0.19205016 -0.11461656 -0.17779775 0.11472086 0.27996668
0.13059768 0.19832002 -0.08646979 -0.030200232 0.056732986 0.102574706 0.049301594 0.030978069
0.116529614 0.21372472 0.013928275 0.27976128 -0.007818993 -0.2413421 -0.26733315 0.23950663
0.101682566 -0.052400086 0.050067566 0.23524892 0.019687712 0.25213885 -0.2676264 -0.002730535
0.2535827 0.22378874 0.10058787 -0.014892862 -0.09717652 0.19697946 0.34138644 0.1915479
-0.16278064 -0.038661435 0.17886758 0.10273488 0.25240448 -0.07508112 -0.30827078 -0.18327065
0.023778448 0.22553024 -0.2890901 -0.09121786 -0.31642357 0.18869893 -0.17560294 -0.13508897
00000000: 2624 f73d f03a 8dbd 0268 613e ca02 19be
00000010: 48a7 f53d d838 b23e 296f 73be 4593 533e
00000020: 0091 873c b97c 143e 909b 373e 3f44 a23e
00000030: 07e1 6fbe e40d 40be ecd5 38be 951c 0fbe
00000040: 477b 30bd acba 8abe 15ff f8bd cca8 44be
00000050: 16bc eabd 9d10 36be c5f2 ea3d cb57 8f3e
00000060: 66bb 053e 6714 4b3e 1317 b1bd 7a66 f7bc
00000070: d960 683d b012 d23d 78f0 493d b8c5 fd3c
00000080: 14a7 ee3d a7da 5a3e 6b33 643c df3c 8f3e
00000090: 3c1b 00bc 6222 77be e4df 88be 3a41 753e
000000a0: f33e d03d 79a1 56bd a613 4d3d 18e5 703e
000000b0: 2048 a13c 5818 813e 5406 89be c7f2 32bb
000000c0: 97d5 813e e028 653e 0301 ce3d 3101 74bc
000000d0: 7c04 c7bd fcb4 493e 34ca ae3e 2225 443e
000000e0: f8af 26be 745b 1ebd 1029 373e aa66 d23d
000000f0: 293b 813e 21c4 99bd abd5 9dbe 4dab 3bbe
00000100: 05cb c23c 66f1 663e 9e03 94be 6ed0 babd
00000110: 4502 a2be 4b3a 413e 42d1 33be c354 0abe

cnnlayers.0.bias f4 [8]
0.07548356 0.29135954 -0.19295692 0.26945776 0.29612538 0.22006063 -0.24022087 -0.1884838
00000000: 2097 9a3d 142d 953e 8096 45be 5ef6 893e
00000010: bf9d 973e 9357 613e 76fc 75be e601 41be

cnnlayers.1.weight f4 [8]
0.9701465 1.0327966 1.0613936 0.97230023 1.0151153 0.9360031 0.9776374 1.0248444
00000000: 855b 783f ae32 843f bfdb 873f abe8 783f
00000010: 4cef 813f e69d 6f3f 7246 7a3f 1a2e 833f

cnnlayers.1.bias f4 [8]
0.022460787 0.009569471 -0.027931307 0.017635653 -0.043398596 -0.022157416 0.059008367 0.032200236
00000000: afff b73c 45c9 1c3c 32d0 e4bc a578 903c
00000010: bac2 31bd 7883 b5bc c2b2 713d 65e4 033d

cnnlayers.1.running_mean f4 [8]
0.15132822 0.23706326 -0.18918192 0.37945572 0.3061511 0.30508402 -0.17658079 -0.28765517
00000000: c9f5 1a3e b6c0 723e e8b8 41be 0548 c23e
00000010: d6bf 9c3e f933 9c3e 98d1 34be 8a47 93be

cnnlayers.1.running_var f4 [8]
0.03712366 0.0329708 0.013682111 0.046237346 0.016055804 0.029435435 0.037361734 0.042782396
00000000: fb0e 183d 640c 073d ef2a 603c 5f63 3d3d
00000010: 7687 833c 9522 f13c 9e08 193d 983c 2f3d

cnnlayers.4.weight f4 [16, 8, 3, 3]
0.021713475 -0.046064522 -0.021915274 -0.041611955 0.057643477 0.006816028 0.061226957 -0.03936007
-0.08190104 0.038553443 -0.0487633 0.0010559774 -0.103217624 -0.03918038 0.038334288 -0.024958659
-0.05547445 0.11002169 -0.07009927 -0.0015006189 0.06730393 -0.09157296 -0.0211909 0.13340834
-0.09702873 -0.024314357 -0.010423275 -0.099815436 0.069368966 0.08109165 0.07221429 0.12392087
0.093614034 0.0870115 0.082861006 -0.03594403 -0.047115456 -0.019084148 -0.0033796462 -0.08899172
0.041163273 -0.078352906 0.018588264 0.035639822 -0.039766375 0.0909123 0.013005626 0.11531343
-0.053078353 0.09039306 -0.017057348 -0.0292343 -0.054154918 -0.021070683 0.083147734 0.07302436
0.025397629 0.07266894 0.07105823 0.063008554 0.047186844 0.057096556 0.08266279 -0.08469957
0.06189302 -0.010198936 -0.06725644 -0.06634458 0.045590933 -0.0119594345 0.00050047453 -0.12670247
0.14908317 0.08316711 -0.0622395 -0.095578715 -0.06283622 0.02497847 0.0064563644 -0.047891308
0.04432298 -0.017105857 -0.07398932 -0.13439393 -0.03168552 0.001716664 -0.13302292 -0.04577804
-0.10567037 -0.082851686 -0.0054926598 -0.08737618 0.067450404 0.030118696 0.03350641 0.048503824
-0.0025274735 -0.0051269704 0.058852088 0.050464336 -0.12674928 -0.057741106 -8.980768e-05 -0.110578835
-0.03233069 0.040174875 0.028736502 -0.0032346349 0.05461697 0.024162233 -0.07617747 -0.00481004
-0.096037135 -0.01376137 -0.044589493 -0.006711509 0.064277545 -0.08557315 -0.085737936 0.048954327
-0.03372214 0.004939311 -0.025905283 0.048689093 -0.0036080806 -0.0031512533 0.04814759 0.1442463
0.013768045 0.028014515 0.10546726 -0.041298155 -0.004258571 -0.041555826 0.006744006 0.027334968
0.015882991 0.042792413 0.0072227702 -0.117819145 0.008633164 -0.054045048 0.037280895 -0.025255593
-0.022402413 -0.020357877 -0.042994335 -0.114617586 0.04094901 0.1618926 0.054468002 0.05427791
0.034122422 0.013275081 -0.037314523 -0.05782955 -0.117996745 -0.02679822 -0.05839854 -0.04249688
-0.09937851 -0.09622598 0.019136647 -0.046028007 0.08058314 -0.06247469 -0.028802585 -0.0049502067
-0.13883427 -0.0047904695 -0.052090865 0.0018884006 -0.062193308 0.06444234 -0.052053053 0.03497625
-0.01571396 0.015450484 -0.077421874 0.1368477 -0.03248525 -0.037205 -0.0007360972 -0.05018626
-0.029568661 -0.031710163 0.041774455 0.026782537 0.05864857 0.05263025 -0.0926883 0.01766302
0.08898916 0.07330833 -0.0067193056 0.002618597 -0.12111483 0.030073326 -0.1166567 -0.112613656
0.049594387 -0.10625794 -0.06299307 -0.006513531 -0.006864729 0.02229109 0.12153432 0.09870329
-0.053815663 0.10118021 0.083845 0.06355052 0.022703558 0.05665841 0.09124166 0.057049133
-0.11973245 -0.06673214 0.048295014 -0.047611482 0.060689695 0.026184605 0.0072063017 -0.0944139
-0.081754126 -0.11851374 -0.10079862 0.085593626 -0.093274616 0.08606387 0.01691615 -0.034512643
-0.05524707 -0.0072657424 -0.054525122 -0.12470503 -0.0057407734 -0.102467805 0.059930407 -0.07723314
-0.044008363 0.030930592 0.082745716 -0.027959831 -0.122481026 0.06646938 0.018661408 -0.049897183
-0.1286259 0.11687293 0.047461253 0.060462546 0.0799574 0.06569868 -0.1028545 0.017336797
00000000: 75e0 b13c 27ae 3cbd a987 b3bc 4c71 2abd
00000010: 911b 6c3d fd58 df3b 1ec9 7a3d 0638 21bd
00000020: bcbb a7bd 37ea 1d3d 07bc 47bd b968 8a3a
00000030: c363 d3bd 9b7b 20bd 6a04 1d3d 1a76 ccbc
00000040: 2d39 63bd 0d53 e13d 3590 8fbd 6ab0 c4ba
00000050: a5d6 893d 9b8a bbbd 8a98 adbc 329c 083e
00000060: 00b7 c6bd e72e c7bc 62c6 2abc 096c ccbd
00000070: 5111 8e3d 6113 a63d 16e5 933d 3aca fd3d
00000080: b7b8 bf3d 1633 b23d 08b3 a93d 0c3a 13bd
00000090: 23fc 40bd 5c56 9cbc 0e7d 5dbb 4a41 b6bd
000000a0: d29a 283d 7d77 a0bd 6a46 983c 10fb 113d
000000b0: 11e2 22bd 3a30 ba3d 8d15 553c 7329 ec3d
000000c0: b068 59bd ff1f b93d dabb 8bbc c57c efbc
000000d0: 8cd1 5dbd 6d9c acbc 5c49 aa3d cc8d 953d
000000e0: b00e d03c 74d3 943d fa86 913d a10a 813d
000000f0: fe46 413d 14de 693d 1c4b a93d f876 adbd
00000100: 8983 7d3d 7019 27bc bfbd 89bd abdf 87bd
00000110: 8fbd 3a3d 81f1 43bc 4732 033a 4bbe 01be
00000120: 42a9 183e 8553 aa3d d9ee 7ebd c6be c3bd
00000130: 47b0 80bd a69f cc3c e98f d33b ad29 44bd
00000140: 038c 353d 9521 8cbc b687 97bd 909e 09be
00000150: adc8 01bd af01 e13a 2937 08be c181 3bbd
00000160: b569 d8bd 25ae a9bd c5fb b3bb 48f2 b2bd
00000170: 7023 8a3d 7cbb f63c 043e 093d f2ab 463d
00000180: f8a3 25bb 2500 a8bb e30e 713d b1b3 4e3d
00000190: 90ca 01be f081 6cbd 2257 bcb8 2877 e2bd
000001a0: 306d 04bd 698e 243d d068 eb3c 2bfc 53bb
000001b0: 0bb6 5f3d e0ef c53c ef02 9cbd 8a9d 9dbb
000001c0: 1eaf c4bd 5f77 61bc 79a3 36bd 38ec dbbb
000001d0: f2a3 833d fa40 afbd 5f97 afbd 5584 483d
000001e0: 3a20 0abd f2d9 a13b 5137 d4bc 376e 473d
000001f0: 8c75 6cbb 4285 4ebb 6836 453d 4db5 133e
00000200: 5e93 613c b27e e53c 38ff d73d 4128 29bd
00000210: 7c8b 8bbb 7136 2abd d3fc dc3b 95ed df3c
00000220: 0c1d 823c 1947 2f3d fdac ec3b 2a4b f1bd
00000230: 1d72 0d3c 575e 5dbd dab3 183d d1e4 cebc
00000240: 4485 b7bc 90c5 a6bc d41a 30bd a0bc eabd
00000250: 26ba 273d 2cc7 253e d719 5f3d 8452 5e3d
00000260: f4c3 0b3d ba7f 593c 1dd7 18bd aede 6cbd
00000270: 47a8 f1bd f187 dbbc 4f33 6fbd 3511 2ebd
00000280: f686 cbbd 2012 c5bd 75c4 9c3c dd87 3cbd
00000290: c608 a53d 76e5 7fbd 66f3 ebbc 5835 a2bb
000002a0: 922a 0ebe 5ff9 9cbb 3b5d 55bd 3684 f73a
000002b0: 69be 7ebd 58fa 833d 9535 55bd 4243 0f3d
000002c0: 90ba 80bc 0724 7d3c 5c8f 9ebd ce21 0c3e
000002d0: 410f 05bd 4564 18bd a6f6 40ba 1c90 4dbd
000002e0: fa39 f2bc 84e2 01bd b11b 2b3d 0d67 db3c
000002f0: 7c39 703d d192 573d 5dd3 bdbd 0ab2 903c
00000300: f33f b63d ad22 963d 9f2d dcbb c49c 2b3b
00000310: 0d0b f8bd 565c f63c b5e9 eebd fda1 e6bd
00000320: 7c23 4b3d c39d d9bd 8302 81bd 756f d5bb
00000330: 85f1 e0bb ce9b b63c fce6 f83d f324 ca3d
00000340: d06d 5cbd 9237 cf3d edb6 ab3d c626 823d
00000350: d0fc b93c a612 683d e8dc ba3d 5aac 693d
00000360: 4936 f5bd dcaa 88bd fed0 453d 4204 43bd
00000370: c295 783d 1981 d63c d722 ec3b 135c c1bd
00000380: b56e a7bd 55b7 f2bd 826f cebd b64b af3d
00000390: c306 bfbd 4142 b03d bd93 8a3c 215d 0dbd
000003a0: c04a 62bd 7715 eebb bc55 5fbd 5a65 ffbd
000003b0: 191d bcbb a4da d1bd 9679 753d 692c 9ebd
000003c0: 1d42 34bd 2762 fd3c 9676 a93d 040c e5bc
000003d0: 55d7 fabd 1921 883d cfdf 983c fd60 4cbd
000003e0: 82b6 03be 135b ef3d bb66 423d 93a7 773d
000003f0: b5c0 a33d 088d 863d 61a5 d2bd e605 8e3c

cnnlayers.4.bias f4 [16]
-0.10862976 0.04554435 -0.092166536 -0.11273425 0.11572987 0.07856145 0.053820502 0.10095709
0.035165854 -0.058532983 0.027569644 0.104695834 -0.06452711 0.024540678 0.10619383 -0.048365783
00000000: 4879 debd b68c 3a3d cfc1 bcbd 37e1 e6bd
00000010: c803 ed3d d3e4 a03d e372 5c3d 97c2 ce3d
00000020: 120a 103d 48c0 6fbd bcd9 e13c c56a d63d
00000030: ca26 84bd 8809 c93c 277c d93d 331b 46bd

cnnlayers.5.weight f4 [16]
0.97288007 0.9731803 0.9728299 0.9964258 0.9901906 1.0455135 1.038898 1.0106144
0.9626795 0.9933457 0.9926557 0.9981084 1.0403496 0.99676967 1.0134234 0.97986144
00000000: ab0e 793f 5822 793f 610b 793f c315 7f3f
00000010: 227d 7d3f 63d3 853f 9cfa 843f d05b 813f
00000020: 2a72 763f e74b 7e3f af1e 7e3f 0884 7f3f
00000030: 2d2a 853f 4c2c 7f3f dcb7 813f 33d8 7a3f

cnnlayers.5.bias f4 [16]
-0.025593285 -0.04163012 -0.023349933 -0.010970521 0.032178797 -0.040024407 -0.030314311 -0.05421113
-0.13829455 -0.017519841 0.011415608 -0.018824156 -0.0519037 -0.059856273 0.0030878251 -0.013061081
00000000: 02a9 d1bc 5884 2abd 5c48 bfbc b3bd 33bc
00000010: eacd 033d a2f0 23bd b855 f8bc 7d0c 5ebd
00000020: 169d 0dbe c585 8fbc 8808 3b3c 1e35 9abc
00000030: f998 54bd da2b 75bd 1c5d 4a3b 25fe 55bc

cnnlayers.5.running_mean f4 [16]
0.21628036 -0.2425107 -0.22458014 -0.4841237 0.4711861 0.17262648 -0.48497123 0.04002775
-0.054075055 -0.18653527 -0.023444185 -0.4275177 0.15333582 -0.19749062 0.10298438 0.0030346157
00000000: 9978 5d3e ba54 78be 56f8 65be 10df f7be
00000010: 4e3f f13e ffc4 303e 264e f8be 23f4 233d
00000020: ce7d 5dbd 1a03 3fbe 050e c0bc 9ae3 dabe
00000030: 1104 1d3e fb3a 4abe 7ae9 d23d 67e0 463b

cnnlayers.5.running_var f4 [16]
0.54795456 0.20272684 0.4567568 0.44115835 0.23164454 0.2940582 0.21823232 0.4372954
0.11363871 0.37305298 0.58313656 0.8051512 0.24210227 0.28396115 0.28242934 0.18103068
00000000: c046 0c3f a097 4f3e 07dc e93e 82df e13e
00000010: 3a34 6d3e cc8e 963e 4b78 5f3e 2fe5 df3e
00000020: 69bb e83d cd00 bf3e 7048 153f 641e 4e3f
00000030: a8e9 773e 5b63 913e 949a 903e 1b60 393e

cnnlayers.9.weight f4 [24, 16, 3, 3]
-0.033867136 -0.021718225 0.057964496 -0.0077818376 -0.01277567 -0.06620011 0.07370818 0.057337396
0.018242035 0.02475223 -0.020883327 -0.019511322 -0.047190428 0.014688353 0.042875562 0.060629364
0.021368343 -0.037345957 -0.015250615 0.03219575 0.064470634 0.0528331 -0.024507813 0.01956179
0.015771104 0.058115453 0.07437004 0.07730275 0.003333298 0.01679956 -0.030693274 0.074113235
-0.02579223 0.06529855 -0.039844766 0.081850104 0.02761985 0.011220166 0.046110965 -0.029619494
-0.0073594693 -0.01851097 -0.043431103 0.057536203 0.0035172764 0.04261188 0.06172858 0.06968685
0.044329725 -0.02608832 0.09955382 0.010548184 -0.033267304 -0.021161664 -0.04245345 -0.030544346
-0.0066049453 0.095203765 -0.07182155 -0.07161663 -0.056034468 0.055598326 -0.03848577 0.0027495762
0.026393857 -0.014313245 0.03303957 0.05982108 -0.019611781 -0.020882908 -0.011709501 0.012355901
-0.0116353 -0.005328664 0.02149778 0.005052137 0.027460791 0.01681741 -0.015055536 -0.015130641
-0.010245163 0.025720915 -0.009462707 0.0073363036 0.027640754 -0.014367139 -0.06450797 -0.048192933
0.08302176 -0.018975653 -0.025840256 -0.04790333 0.05422927 0.018898673 -0.104725845 -0.10032404
0.014933838 0.07938094 -0.007479659 0.024109026 0.08419004 -0.007152316 0.0075665135 -0.015221732
-0.018375395 -0.040920615 -0.044374797 0.0038557511 -0.0038291058 0.07756186 -0.061856475 0.007896928
0.14335516 0.06856815 -0.05518954 0.04417169 0.009314854 -0.03825479 -0.013882807 -0.058286928
-0.014229129 0.065760024 0.03788761 0.05009809 0.07724301 -0.05150202 0.07535706 -0.029038262
0.03219343 0.035704676 0.07210838 0.061499912 0.0229889 0.1016171 -0.049540326 -0.04413876
-0.063319474 -0.04024079 0.08082342 -0.06339792 -0.061499357 -0.045944754 0.033077233 0.024249325
-0.025753226 0.036854137 -0.082559794 0.036426496 -0.06396878 0.020140264 0.0186028 -0.04893413
-0.052771118 0.05700539 -0.03387569 0.07060533 0.026586948 -0.029700017 -0.020955738 -0.0010632501
-0.040948506 -0.047376003 -0.011073153 0.016593756 -0.02431491 0.084455 -0.032840982 -0.041975673
0.011588654 -0.049010083 -0.075173914 -0.009419019 -0.011697467 0.06487922 -0.04881333 -0.042205285
0.019206353 0.014856066 0.031430177 0.023063544 -0.014343981 0.028307054 0.02346302 -0.10183776
0.07614527 0.035064816 -0.024998944 0.025662912 -0.06498159 -0.054770987 0.0409548 -0.0054695383
-0.04446398 -0.0014484134 0.037902657 -0.081342764 0.06339666 -0.05836938 0.005932047 -0.0051115053
0.00027702234 -0.041258357 0.05537435 0.009615271 0.068642676 0.057653353 0.025067648 0.016881764
0.06779133 0.09373523 -0.022439862 -0.0074250805 -0.063432634 -0.074951634 -0.0323145 0.072806194
-0.009032715 -0.08831766 0.055362202 0.06275903 0.020587921 0.035693776 0.06319204 -0.07444979
-0.03779458 -0.043617174 -0.10752844 -0.10110762 -0.0277283 -0.059042715 -0.019215813 -0.11864091
-0.05094149 0.024402022 -0.075402856 -0.032818213 -0.060664505 0.043065526 0.014969279 0.020773591
-0.049307823 -0.02966514 0.040419698 0.040277857 -0.08234929 -0.009850365 0.030102696 -0.0012691253
-0.029629203 -0.013823825 -0.021888826 -0.031364366 -0.038610492 -0.008957984 0.09495685 -0.044109475
00000000: 44b8 0abd 6bea b1bc 2e6c 6d3d c9fe febb
00000010: 0b51 51bc ec93 87bd 50f4 963d 9eda 6a3d
00000020: 5270 953c 30c5 ca3c 8313 abbc 35d6 9fbc
00000030: c04a 41bd 6ba7 703c 499e 2f3d 7f56 783d
00000040: aa0c af3c 13f8 18bd b7dd 79bc b1df 033d
00000050: 2e09 843d 8567 583d 9cc4 c8bc 0c40 a03c
00000060: 6732 813c 780a 6e3d 524f 983d e750 9e3d
00000070: 7673 5a3b 3b9f 893c 7670 fbbc aec8 973d
00000080: 3a4a d3bc 3fbb 853d 4434 23bd 07a1 a73d
00000090: 0643 e23c cad4 373c dade 3c3d 95a4 f2bc
000000a0: b427 f1bb 51a4 97bc d0e4 31bd 15ab 6b3d
000000b0: 1b82 663b cb89 2e3d 1cd7 7c3d fbb7 8e3d
000000c0: 1693 353d 2cb7 d5bc e0e2 cb3d 4ad2 2c3c
000000d0: 4c43 08bd 3a5b adbc abe3 2dbd 2338 fabc
000000e0: 4c6e d8bb 31fa c23d 2d17 93bd bdab 92bd
000000f0: 6684 65bd 12bb 633d 41a3 1dbd 3c32 343b
00000100: ee37 d83c 1a82 6abc 8054 073d f306 753d
00000110: e3a8 a0bc a212 abbc 35d9 3fbc 6870 4a3c
00000120: fca1 3ebc 139c aebb 1d1c b03c 668c a53b
00000130: 74f5 e03c aac4 893c 7fab 76bc 82e6 77bc
00000140: 54db 27bc abb4 d23c 7809 1bbc 6065 f03b
00000150: dd6e e23c 2664 6bbc c11c 84bd f465 45bd
00000160: 5007 aa3d d472 9bbc f2ae d3bc 4836 44bd
00000170: 831f 5e3d 64d1 9a3c 817a d6bd b176 cdbd
00000180: 0ead 743c 7992 a23d ed17 f5bb 4b80 c53c
00000190: d46b ac3d fa5d eabb 84f0 f73b 9264 79bc
000001a0: ff87 96bc 609c 27bd 59c2 35bd c5b0 7c3b
000001b0: bcf1 7abb c1d8 9e3d 375d 7dbd 1e62 013c
000001c0: b2cb 123e 756d 8c3d 6d0e 62bd 60ed 343d
000001d0: 549d 183c 0eb1 1cbd b774 63bc 46be 6ebd
000001e0: 4b21 69bc 31ad 863d 0a30 1b3d a833 4d3d
000001f0: 9531 9e3d c8f3 52bd cd54 9a3d a6e1 edbc
00000200: 42dd 033d 113f 123d 8fad 933d 55e7 7b3d
00000210: 3853 bc3c a01c d03d ccea 4abd d8ca 34bd
00000220: a4ad 81bd 87d3 24bd c086 a53d c5d6 81bd
00000230: c0e6 7bbd 9130 3cbd fe7b 073d 85a6 c63c
00000240: 6ef8 d2bc 5df4 163d 1c15 a9bd f333 153d
00000250: 1002 83bd 32fd a43c e664 983c 286f 48bd
00000260: 8726 58bd 7c7e 693d 3cc1 0abd 8799 903d
00000270: dfcc d93c 734d f3bc 5eab abbc c15c 8bba
00000280: 9fb9 27bd 570d 42bd 2b6c 35bc a1ef 873c
00000290: 1030 c7bc bef6 ac3d 4484 06bd afee 2bbd
000002a0: 56de 3d3c ccbe 48bd c8f4 99bd 3b52 1abc
000002b0: bca6 3fbc 66df 843d 7cf0 47bd 73df 2cbd
000002c0: a456 9d3c db66 733c eebc 003d c2ef bc3c
000002d0: 0403 6bbc 32e4 e73c 8535 c03c 5190 d0bd
000002e0: 0df2 9b3d 20a0 0f3d 96ca ccbc 073b d23c
000002f0: 1115 85bd 8b57 60bd 38c0 273d d039 b3bb
00000300: dd1f 36bd b0d8 bdba d13f 1b3d 0997 a6bd
00000310: 1cd6 813d bb14 6fbd 9e61 c23b 6a7e a7bb
00000320: 4f3d 9139 86fe 28bd 37d0 623d 5f89 1d3c
00000330: 8894 8c3d ec25 6c3d ab5a cd3c a04b 8a3c
00000340: 2ed6 8a3d 42f8 bf3d cdd3 b7bc 174e f3bb
00000350: f8e8 81bd 3e80 99bd 365c 04bd 6a1b 953d
00000360: f4fd 13bc e4df b4bd 7ac3 623d ce87 803d
00000370: 00a8 a83c a333 123d d46a 813d 2279 98bd
00000380: 7dce 1abd eca7 32bd df37 dcbd 8311 cfbd
00000390: 7626 e3bc c6d6 71bd 7b6a 9dbc 01fa f2bd
000003a0: 06a8 50bd c0e6 c73c d06c 9abd 646c 06bd
000003b0: 587b 78bd 7a65 303d b541 753c 612d aa3c
000003c0: 00f7 49bd 4f04 f3bc 208f 253d 65fa 243d
000003d0: bfa6 a8bd 6d63 21bc ee99 f63c c758 a6ba
000003e0: f1b8 f2bc 537d 62bc 3250 b3bc ec77 00bd
000003f0: 0926 1ebd 82c4 12bc bd78 c23d 23ac 34bd

cnnlayers.9.bias f4 [24]
-0.06364911 -0.06835212 0.05437989 -0.01697743 0.06090523 0.050782315 -0.001242747 -0.0025212169
-0.07817109 -0.06247173 0.019130668 0.011275063 -0.021466097 -0.012893438 0.076624215 0.06573053
-0.011074653 0.02303636 0.07674889 0.02958858 -0.035039842 0.057411276 0.03687077 -0.018656543
00000000: 775a 82bd 32fc 8bbd 73bd 5e3d 4014 8bbc
00000010: c377 793d 1e01 503d abe3 a2ba 003b 25bb
00000020: 2a18 a0bd 5be2 7fbd ebb7 9c3c 0bbb 383c
00000030: abd9 afbc 003f 53bc 28ed 9c3d ba9d 863d
00000040: 7672 35bc c0b6 bc3c 862e 9d3d c063 f23c
00000050: f085 0fbd 1628 6b3d ce05 173d 9bd5 98bc

cnnlayers.10.weight f4 [24]
1.2414013 1.2445803 1.181865 1.1903327 1.1271458 1.3493267 1.1499316 1.285582
1.281107 1.2993685 1.1728755 1.1535772 1.2553985 1.2628249 1.2684937 1.2457118
1.2331586 1.2471191 1.3014218 1.2377088 1.1393076 1.2609831 1.2502503 1.3510841
00000000: 3de6 9e3f 684e 9f3f 5a47 973f d25c 983f
00000010: 5046 903f bdb6 ac3f f530 933f f38d a43f
00000020: 50fb a33f b551 a63f c920 963f 6ba8 933f
00000030: e6b0 a03f 3fa4 a13f 005e a23f 7c73 9f3f
00000040: 24d8 9d3f 99a1 9f3f fd94 a63f 3e6d 9e3f
00000050: d5d4 913f e567 a13f 3408 a03f 53f0 ac3f

cnnlayers.10.bias f4 [24]
0.056960166 0.03326715 0.038977806 0.047349147 0.023280349 0.024331316 0.0357727 0.041880555
0.047785178 0.056743708 0.047638185 0.023998953 0.027836416 0.026844513 0.04500186 0.023530196
0.03977291 0.036355536 0.06889037 0.068296075 0.018555572 0.04159725 0.025962697 0.06772659
00000000: 104f 693d 2343 083d 31a7 1f3d 2ef1 413d
00000010: 6eb6 be3c 7852 c73c 6586 123d f28a 2b3d
00000020: 64ba 433d 176c 683d 4220 433d 7499 c43c
00000030: 3209 e43c 06e9 db3c df53 383d 66c2 c03c
00000040: ebe8 223d 8be9 143d 6516 8d3d d0de 8b3d
00000050: db01 983c e161 2a3d b9af d43c 3db4 8a3d

cnnlayers.10.running_mean f4 [24]
0.57519835 -0.2595813 -0.07193004 -0.25639883 0.541148 -0.50444436 0.3511958 -0.039934948
0.13179691 -0.08281835 0.36323208 0.5922659 -0.21233507 0.3229251 0.23304802 -0.38109308
0.15417413 0.15538289 -0.0799851 -0.06536727 0.034622975 -0.3980627 -0.3373405 0.28346068
00000000: 3340 133f d7e7 84be 0f50 93bd b546 83be
00000010: ad88 0a3f 4423 01bf f0cf b33e d492 23bd
00000020: c5f5 063e ab9c a9bd 8ef9 b93e bd9e 173f
00000030: 5d6e 59be 7056 a53e 24a4 6e3e a21e c3be
00000040: d3df 1d3e b11c 1f3e 3acf a3bd 46df 85bd
00000050: d2d0 0d3d e0ce cbbe e5b7 acbe c221 913e

cnnlayers.10.running_var f4 [24]
0.39741415 0.33109698 0.31454262 0.28425747 0.46172568 0.28617695 0.33128893 0.24691075
0.4181619 0.31808463 0.2530332 0.50538534 0.29423532 0.26081115 0.37044242 0.24483386
0.4247636 0.43288824 0.31222582 0.4627413 0.31960264 0.2797251 0.37443507 0.42767087
00000000: de79 cb3e 8b85 a93e bb0b a13e 328a 913e
00000010: 4f67 ec3e c985 923e b49e a93e 2cd6 7c3e
00000020: 5119 d63e fddb a23e 918d 813e ef60 013f
00000030: 03a6 963e 0a89 853e a1aa bd3e bab5 7a3e
00000040: 9d7a d93e 87a3 dd3e 10dc 9f3e 6dec ec3e
00000050: f5a2 a33e 2138 8f3e f4b5 bf3e adf7 da3e

cnnlayers.14.weight f4 [32, 216]
0.0017820948 0.07873741 -0.03878323 0.055667438 0.077801295 -0.023544557 -0.07877808 -0.12545533
-0.06628793 -0.07072035 -0.009132388 0.07998294 0.037200436 -0.0032662877 0.011879208 -0.12322388
0.0703377 0.036334038 0.041259445 0.07399494 0.042010445 -0.048158076 -0.014785344 0.03620914
-0.023809016 0.045580197 -0.013655301 -0.016379613 0.043984376 0.053423975 0.018373776 0.052571967
0.07922129 0.13080837 -0.0771794 -0.04004852 0.035999276 -0.019492147 0.011624955 0.07169555
0.0096333185 -0.024902117 -0.07505113 0.069487184 0.048322033 0.0066306326 -0.025451858 0.05166814
-0.048232928 -0.03642416 0.11961722 -0.07028781 0.06653767 -0.0178272 0.035040308 -0.02362157
-0.0363557 0.037333213 0.027203565 -0.0032710359 -0.06003742 -0.05067742 -0.024294825 0.019145887
-0.0628551 -0.02131496 0.06438506 -0.11627638 0.055488393 -0.023287872 0.11782666 -0.086887516
-0.08613051 -0.08480086 -0.013136335 -0.006485612 0.053877857 0.05985202 0.009862265 -0.08958419
-0.10357118 -0.058355138 -0.0027660928 0.08043321 -0.029988756 0.08468936 -0.079388574 0.009502588
-0.010400817 -0.0578895 -0.021620704 -0.03255153 -0.0063109268 0.020141609 -0.047823437 0.09090911
0.036131408 -0.01123515 -0.007239465 0.04536165 0.11582021 0.040583014 -0.04261139 -0.006327029
-0.007927539 -0.076961726 -0.033488505 -0.0043466855 0.046781402 0.031807095 -0.014832489 -0.018882636
-0.08827554 0.036095396 0.010676199 0.007512768 0.007268235 0.011582852 0.10176182 -0.036111724
0.0055339183 -0.04528842 -0.015113186 0.017028809 -0.0360946 0.011724772 0.031586997 0.036048178
0.027322656 0.068218015 0.06224215 -0.023961447 0.0072878664 -0.11776856 0.09318485 0.061817855
-0.053330597 0.032308042 0.060034737 -0.06454649 0.028549755 -0.050459534 0.14139262 0.011943927
0.021924624 0.030250482 -0.059974875 0.09002922 -0.042301875 -0.057876837 -0.048026882 -0.11187291
0.03518731 0.0019569534 0.024621068 -0.07735009 0.06950519 -0.09164782 0.03057111 -0.10311372
-0.04229014 -0.014831817 0.038999666 -0.017673422 0.100462414 -0.0838732 0.10379234 -0.07045877
0.12342017 -0.03128137 0.010659625 0.050860245 0.030405741 -0.07224178 -0.054850318 -0.107847236
-0.021059195 -0.021682424 0.19975704 -0.057697814 0.043272223 0.12016954 -0.021721855 -0.029025491
-0.0036707877 0.07957426 -0.013511628 -0.06773606 -0.08009996 -0.025133234 -0.023562897 0.06982282
0.0757978 0.054321792 0.034778424 0.008352786 0.010925538 0.054179233 0.07084565 0.1154932
-0.06275497 -0.029630832 -0.0508291 0.08285799 -0.030561553 0.022874065 -0.03370068 -0.077702135
-0.04556685 0.06721548 0.034137383 -0.0003749404 0.011823112 -0.009816386 0.14102133 -0.0009737369
0.040078346 0.04717743 0.013066354 -0.005678235 -0.044812288 -0.071998864 -0.008476911 0.018430369
-0.021121431 0.007756278 -0.038065292 0.045702264 -0.07549314 0.10236622 0.008860264 -0.007613592
0.021231111 -0.05597478 -0.0023043063 0.038862973 0.033767276 0.09222101 0.036020778 -0.08105839
-0.01673016 -0.054465752 -0.014575903 0.062334564 0.04502122 0.004566616 0.03573427 0.022858089
-0.05592026 -0.061286222 0.04285028 -0.032737 0.03457174 -0.049469847 0.013577964 -0.08702269
00000000: 2e95 e93a 1441 a13d 2adb 1ebd 8a03 643d
00000010: 4956 9f3d 84e0 c0bc 6756 a1bd 5d77 00be
00000020: f7c1 87bd d5d5 90bd 03a0 15bc 18ce a33d
00000030: 7c5f 183d 370f 56bb 02a1 423c cd5c fcbd
00000040: 360d 903d 00d3 143d aaff 283d a98a 973d
00000050: 2513 2c3d 6741 45bd 3a3e 72bc 0950 143d
00000060: 200b c3bc 4db2 3a3d 7cba 5fbc 8a2e 86bc
00000070: f628 343d 19d3 5a3d 9a84 963c b455 573d
00000080: c63e a23d a1f2 053e 3c10 9ebd eb09 24bd
00000090: fa73 133d ffad 9fbc 9876 3e3c 1ed5 923d
000000a0: 11d5 1d3c 86ff cbbc 68b4 99bd 4c4f 8e3d
000000b0: 53ed 453d c745 d93b 6a80 d0bc f9a1 533d
000000c0: e48f 45bd 8031 15bd dff9 f43d 0ef3 8fbd
000000d0: e744 883d 590a 92bc 6d86 0f3d 0682 c1bc
000000e0: b7e9 14bd b6ea 183d 03da de3c e05e 56bb
000000f0: cce9 75bd 2093 4fbd f105 c7bc d6d7 9c3c
00000100: 2dba 80bd b69c aebc 50dc 833d 5022 eebd
00000110: cc47 633d 35c6 bebc 1b4f f13d 15f2 b1bd
00000120: 3165 b0bd 13ac adbd c839 57bc 4285 d4bb
00000130: 07af 5c3d 6427 753d 5695 213c ea77 b7bd
00000140: 201d d4bd cc05 6fbd 5647 35bb 2bba a43d
00000150: fbaa f5bc 9d71 ad3d 7a96 a2bd beb0 1b3c
00000160: 3068 2abc 8a1d 6dbd e71d b1bc c154 05bd
00000170: e4cb cebb 0400 a53c 82e2 43bd 8e2e ba3d
00000180: 87fe 133d a213 38bc 0939 edbb 23cd 393d
00000190: 2533 ed3d 603a 263d 4889 2ebd f752 cfbb
000001a0: 82e2 01bc 1c9e 9dbd 3e2b 09bd a46e 8ebb
000001b0: db9d 3f3d 2848 023d f803 73bc c2af 9abc
000001c0: cec9 b4bd c4d8 133d 39eb 2e3c aa2d f63b
000001d0: 602a ee3b 01c6 3d3c 8068 d03d e3e9 13bd
000001e0: df55 b53b 5a80 39bd 4c9d 77bc 0080 8b3c
000001f0: eed7 13bd 4219 403c 5e61 013d 41a7 133d
00000200: c3d3 df3c e3b5 8b3d a0f1 7e3d cc4a c4bc
00000210: 0ecf ee3b a530 f1bd b3d7 be3d b834 7d3d
00000220: 2f71 5abd 7055 043d fce6 753d f330 84bd
00000230: 2de1 e93c a8ae 4ebd 3ac9 103e 76b0 433c
00000240: 459b b33c dccf f73c 37a8 75bd 3d61 b83d
00000250: bb44 2dbd 4310 6dbd d6b7 44bd a01d e5bd
00000260: 9220 103d 3b40 003b 1fb2 c93c b969 9ebd
00000270: bd58 8e3d dab1 bbbd 4470 fa3c 492d d3bd
00000280: 6d38 2dbd 2601 73bc 1dbe 1f3d dac7 90bc
00000290: 3dbf cd3d b6c5 abbd 1491 d43d b04c 90bd
000002a0: b7c3 fc3d e520 00bd b5a5 2e3c d552 503d
000002b0: 7615 f93c 80f3 93bd baaa 60bd 03df dcbd
000002c0: 5584 acbc 579f b1bc 1c8d 4c3e 8b54 6cbd
000002d0: 373e 313d 731b f63d 08f2 b1bc dec6 edbc
000002e0: 9991 70bb d4f7 a23d e05f 5dbc 34b9 8abd
000002f0: 730b a4bd 36e4 cdbc fa06 c1bc 44ff 8e3d
00000300: e13b 9b3d 8780 5e3d d273 0e3d 20da 083c
00000310: 0701 333c 0beb 5d3d 8617 913d b387 ec3d
00000320: ad85 80bd 5cbc f2bc 2d32 50bd 73b1 a93d
00000330: 395c fabc 6462 bb3c b909 0abd 4c22 9fbd
00000340: 4ea4 3abd 45a8 893d a4d3 0b3d a693 c4b9
00000350: bab5 413c e8d4 20bc e567 103e 6142 7fba
00000360: 3129 243d 1f3d 413d 4314 563c 7d10 babb
00000370: 178d 37bd 2474 93bd bee2 0abc 49fb 963c
00000380: da06 adbc 6028 fe3b 5aea 1bbd 4c32 3b3d
00000390: 269c 9abd 61a5 d13d a42a 113c 707b f9bb
000003a0: deec ad3c d045 65bd d803 17bb c82e 1f3d
000003b0: 8e4f 0a3d 5ede bc3d 868a 133d f101 a6bd
000003c0: b00d 89bc 7b17 5fbd c5cf 6ebc 8752 7f3d
000003d0: 2c68 383d 8da3 953b 195e 123d e340 bb3c
000003e0: a40c 65bd 4307 7bbd c683 2f3d 3c17 06bd
000003f0: 199b 0d3d e5a0 4abd 1c76 5e3c f438 b2bd

cnnlayers.14.bias f4 [32]
0.057850067 0.063453525 0.04096193 0.07469649 -0.036035333 -0.0670516 -0.008514403 0.014779328
-0.0744668 -0.06479825 -0.01271747 0.024672968 -0.0078713065 -0.011398644 0.016390156 -0.031193836
-0.05961509 -0.014581891 -0.06254384 -0.067245714 0.05962853 -0.0108267125 0.012541955 0.03896525
-0.020943142 -0.01765264 0.03009821 -0.0011687244 0.007465595 0.030318754 -0.021169556 -0.06526266
00000000: 31f4 6c3d ecf3 813d b2c7 273d 79fa 983d
00000010: c999 13bd 5952 89bd ff7f 0bbc ff24 723c
00000020: 0d82 98bd f2b4 84bd ef5c 50bc f71e ca3c
00000030: a7f6 00bc 61c1 3abc a644 863c 378a ffbc
00000040: f42e 74bd e2e8 6ebc fc16 80bd 1fb8 89bd
00000050: 0c3d 743d 8662 31bc c67c 4d3c 079a 1f3d
00000060: f490 abbc 459c 90bc 8590 f63c e22f 99ba
00000070: f3a1 f43b 095f f83c c76b adbc 6ea8 85bd

cnnlayers.17.weight f4 [10, 32]
-0.19600488 0.014105231 -0.35789895 0.13265835 -0.122571155 0.1258775 0.10486155 -0.1642628
-0.0478616 0.19939405 -0.31821495 -0.25261024 0.3271592 -0.22510865 -0.19657329 0.1128285
-0.2777264 0.38634852 -0.20058082 -0.21076578 -0.20822634 0.21286108 0.09900979 0.3280139
0.40473548 0.07336355 -0.14165364 0.1402057 0.33371538 -0.035795998 -0.19651733 0.2330041
0.10008094 0.33061898 -0.3791637 0.16503926 -0.26076612 -0.22016908 0.13032527 -0.23590226
-0.29693428 -0.23917793 0.3309639 0.3327029 0.35492367 0.32728693 -0.08350932 -0.047999624
-0.0055071115 0.2820451 -0.10826757 -0.1414905 0.25664535 -0.37558848 -0.11797475 0.20332225
-0.29335785 0.093979485 0.0068700784 0.017211705 -0.03820629 -0.247015 0.4576383 -0.28534356
0.12349715 -0.2929099 0.17514685 -0.34835485 -0.19501847 0.06450987 0.24573243 -0.1427366
-0.015686028 0.26420623 0.3584558 -0.2645125 0.37983733 -0.18785495 -0.041799184 -0.061313123
0.33496472 0.26388028 0.09432153 -0.3305114 0.2110622 0.108710445 -0.051524367 -0.20685478
-0.15893954 0.058465175 -0.14701885 -0.1335141 -0.16029786 -0.21927239 -0.18056923 0.20180543
-0.114992455 -0.26315987 0.1257187 -0.4274957 0.32553628 0.17558688 0.24744244 -0.15414305
-0.13996135 -0.18112867 0.31887868 0.13969591 -0.18329573 -0.10559605 -0.28593186 -0.08849463
0.28694808 -0.27515855 0.40724546 0.31649095 0.1452962 -0.3435218 0.02956225 0.1717139
0.106624775 -0.29205763 -0.083336964 -0.09842545 0.30017638 -0.324272 -0.098428756 0.16887595
-0.27349922 0.33010936 0.12548746 0.10529499 -0.33853242 0.22138101 -0.35077685 0.20616557
-0.08270304 0.21641473 -0.15010557 -0.034188364 -0.030240988 0.36522952 0.24293797 -0.11852299
-0.28598508 -0.20093004 0.25424063 -0.07586135 0.27767983 0.19358201 0.15646103 0.018133173
-0.3951911 -0.2036146 0.03146466 -0.09862777 -0.14969634 0.15333186 0.36783367 -0.19199468
-0.2988433 -0.27102312 -0.00511654 0.1484071 0.2656968 0.22158141 0.16778027 -0.35236594
0.22810596 -0.22094324 -0.23153235 0.33795145 0.011352019 -0.17055868 0.33735666 0.0742567
-0.19751419 -0.16447274 0.30307657 0.31240386 -0.3254955 -0.360073 -0.07714256 -0.28137168
-0.049621493 -0.16655104 0.14399646 -0.16303754 0.34380823 0.3036065 -0.22224247 0.009268719
-0.15377185 0.05297483 -0.40560016 0.19445014 -0.31032228 -0.42241752 -0.34716278 0.06256789
0.18223377 0.25233263 -0.2541826 0.20849745 0.09498234 -0.23660724 0.31139934 0.1631761
0.2526393 -0.25171325 0.34007078 -0.3651173 -0.27402198 0.025078084 -0.111805886 0.25649655
-0.0048438055 0.13813229 0.067210115 0.06685765 0.3062703 0.32339743 -0.15996978 0.11265104
0.20569903 0.03968677 0.059372187 -0.35532525 0.2636057 0.21449831 0.10757587 -0.19971134
-0.4278238 -0.3253789 0.30450827 0.18481533 -0.25015926 -0.012310433 0.09040144 -0.107692316
-0.15996563 0.3244895 -0.07461657 0.055444017 0.21023302 0.257792 0.08804478 -0.22314595
0.25200358 0.1962763 0.38281888 0.12529987 -0.31669682 -0.19389842 -0.11151427 -0.3485469
00000000: 81b5 48be a019 673c 883e b7be 97d7 073e
00000010: 9606 fbbd 08e6 003e a7c1 d63d 8234 28be
00000020: 860a 44bd f42d 4c3e 12ed a2be 2156 81be
00000030: 6981 a73e e282 66be 824a 49be a112 e73d
00000040: 2832 8ebe 79cf c53e 0f65 4dbe fcd2 57be
00000050: 4939 55be 41f8 593e a5c5 ca3d 70f1 a73e
00000060: 7d39 cf3e a13f 963d a70d 11be 1592 0f3e
00000070: bedc aa3e d39e 12bd d73b 49be a098 6e3e
00000080: 3cf7 cc3d e446 a93e bf21 c2be 0d00 293e
00000090: 2383 85be 0174 61be fd73 053e 5d90 71be
000000a0: c507 98be 0feb 74be 1a74 a93e 0958 aa3e
000000b0: 8eb8 b53e 2792 a73e ef06 abbd 419b 44bd
000000c0: 0075 b4bb 3768 903e 63bb ddbd e3e2 10be
000000d0: 0567 833e 224d c0be bf9c f1bd b533 503e
000000e0: 0033 96be 5178 c03d 651e e13b 90ff 8c3c
000000f0: 337e 1cbd 80f1 7cbe 914f ea3e 8d18 92be
00000100: 13ec fc3d 49f8 95be b259 333e 915b b2be
00000110: ecb2 47be c01d 843d 48a1 7b3e 8b29 12be
00000120: fc7f 80bc 0a46 873e 8587 b73e 2f6e 87be
00000130: 0a7a c23e 0c5d 40be 9f35 2bbd 7823 7bbd
00000140: 7f80 ab3e 511b 873e a52b c13d ca38 a9be
00000150: b020 583e 95a3 de3d 370b 53bd bdd1 53be
00000160: 0cc1 22be 2e79 6f3d 1c8c 16be ecb7 08be
00000170: 1f25 24be f188 60be 24e7 38be 15a6 4e3e
00000180: 2a81 ebbd e4bc 86be 67bc 003e b7e0 dabe
00000190: b1ac a63e 0ccd 333e 8d61 7d3e add7 1dbe
000001a0: 0752 0fbe cb79 39be 1144 a33e 720c 0f3e
000001b0: e0b1 3bbe be42 d8bd a965 92be ac3c b5bd
000001c0: dcea 923e 95e1 8cbe 7a82 d03e 1a0b a23e
000001d0: 87c8 143e 17e2 afbe 882c f23c c5d5 2f3e
000001e0: 175e da3d 9488 95be 92ac aabd 4893 c9bd
000001f0: b8b0 993e fb06 a6be 0495 c9bd d1ed 2c3e
00000200: 1708 8cbe 1804 a93e c97f 003e e6a4 d73d
00000210: 1f54 adbe b4b1 623e 0699 b3be 111d 533e
00000220: 3660 a9bd d39b 5d3e 46b5 19be 1909 0cbd
00000230: f3bb f7bc 5dff ba3e bbc4 783e 2ebc f2bd
00000240: a36c 92be 9bc0 4dbe d42b 823e 325d 9bbd
00000250: 0d2c 8e3e 5d3a 463e 5237 203e 058c 943c
00000260: 7d56 cabe 5880 50be 16e1 003d 5bfd c9bd
00000270: ff49 19be 0703 1d3e b254 bc3e 419a 44be
00000280: fd01 99be 8bc3 8abe a6a8 a7bb 08f8 173e
00000290: 6909 883e 3de6 623e 97ce 2b3e 4f69 b4be
000002a0: 9c94 693e f23e 62be d116 6dbe f907 ad3e
000002b0: d2fd 393c efa6 2ebe 03ba ac3e e613 983d
000002c0: 2941 4abe 8b6b 28be da2c 9b3e 66f3 9f3e
000002d0: 59a7 a6be 7d5b b8be ebfc 9dbd f30f 90be
000002e0: e83f 4bbd 5b8c 2abe cf73 133e 50f3 26be
000002f0: a207 b03e 5072 9b3e 8893 63be d3db 173c
00000300: 5e76 1dbe 23fc 583d d3aa cfbe f01d 473e
00000310: 90e2 9ebe 1c47 d8be 52bf b1be 9823 803d
00000320: 7d9b 3a3e be31 813e 3924 82be 5b80 553e
00000330: 1a86 c23d 2b49 72be bc6f 9f3e a317 273e
00000340: f059 813e 8fe0 80be c21d ae3e a8f0 babe
00000350: 9c4c 8cbe 8e70 cd3c 7cfa e4bd 8453 833e
00000360: c9b8 9ebb 8d72 0d3e 75a5 893d aaec 883d
00000370: 76cf 9c3e 5994 a53e 1ecf 23be 97b5 e63d
00000380: c4a2 523e 988e 223d 4030 733d 31ed b5be
00000390: 54f7 863e 72a5 5b3e bd50 dc3d 2181 4cbe
000003a0: b90b dbbe 1098 a6be 82e8 9b3e 3b40 3d3e
000003b0: e014 80be b3b1 49bc 6424 b93d ca8d dcbd
000003c0: 08ce 23be 7d23 a63e 92d0 98bd 4419 633d
000003d0: 5347 573e 50fd 833e d250 b43d 5f80 64be
000003e0: 9d06 813e a8fc 483e d600 c43e 9c4e 003e
000003f0: 1626 a2be 4f8d 46be 9861 e4bd bd74 b2be

cnnlayers.17.bias f4 [10]
0.031392097 0.1695651 -0.12888741 -0.18477125 -0.18698114 -0.15727264 -0.21807848 0.11142507
-0.09218333 -0.13429868
00000000: 0095 003d 79a2 2d3e 10fb 03be ad34 3dbe
00000010: fc77 3fbe 140c 21be f74f 5fbe d432 e43d
00000020: 9dca bcbd 9885 09be
